…
ell_type":"markdown","metadata":{"id":"sjlKUHpdsXk0","colab_type":"text"},"source":["查看模型结构，"]},{"cell_type":"code","metadata":{"id":"F9Sj0xGMsVML","colab_type":"code","colab":{"base_uri":"https://localhost:8080/","height":2635},"outputId":"1e2e5d2a-084d-49af-89dc-cb71c45447bd","executionInfo":{"status":"ok","timestamp":1558162378398,"user_tz":-480,"elapsed":1240,"user":{"displayName":"王花花","photoUrl":"","userId":"02057802623083556111"}}},"source":["learn.model"],"execution_count":20,"outputs":[{"output_type":"execute_result","data":{"text/plain":["Sequential(\n","  (0): Sequential(\n","    (0): Conv2d(3, 64, kernel_size=(7, 7), stride=(2, 2), padding=(3, 3), bias=False)\n","    (1): BatchNorm2d(64, eps=1e-05, momentum=0.1, affine=True, track_running_stats=True)\n","    (2): ReLU(inplace)\n","    (3): MaxPool2d(kernel_size=3, stride=2, padding=1, dilation=1, ceil_mode=False)\n","    (4): Sequential(\n","      (0): BasicBlock(\n","        (conv1): Conv2d(64, 64, kernel_size=(3, 3), stride=(1, 1), padding=(1, 1), bias=False)\n","        (bn1): BatchNorm2d(64, eps=1e-05, momentum=0.1, affine=True, track_running_stats=True)\n","        (relu): ReLU(inplace)\n","        (conv2): Conv2d(64, 64, kernel_size=(3, 3), stride=(1, 1), padding=(1, 1), bias=False)\n","        (bn2): BatchNorm2d(64, eps=1e-05, momentum=0.1, affine=True, track_running_stats=True)\n","      )\n","      (1): BasicBlock(\n","        (conv1): Conv2d(64, 64, kernel_size=(3, 3), stride=(1, 1), padding=(1, 1), bias=False)\n","        (bn1): BatchNorm2d(64, eps=1e-05, momentum=0.1, affine=True, track_running_stats=True)\n","        (relu): ReLU(inplace)\n","        (conv2): Conv2d(64, 64, kernel_size=(3, 3), stride=(1, 1), padding=(1, 1), bias=False)\n","        (bn2): BatchNorm2d(64, eps=1e-05, momentum=0.1, affine=True, track_running_stats=True)\n","      )\n","      (2): BasicBlock(\n","        (conv1): Conv2d(64, 64, kernel_size=(3, 3), stride=(1, 1), padding=(1, 1), bias=False)\n","        (bn1): BatchNorm2d(64, eps=1e-05, momentum=0.1, affine=True, track_running_stats=True)\n","        (relu): ReLU(inplace)\n","        (conv2): Conv2d(64, 64, kernel_size=(3, 3), stride=(1, 1), padding=(1, 1), bias=False)\n","        (bn2): BatchNorm2d(64, eps=1e-05, momentum=0.1, affine=True, track_running_stats=True)\n","      )\n","    )\n","    (5): Sequential(\n","      (0): BasicBlock(\n","        (conv1): Conv2d(64, 128, kernel_size=(3, 3), stride=(2, 2), padding=(1, 1), bias=False)\n","        (bn1): BatchNorm2d(128, eps=1e-05, momentum=0.1, affine=True, track_running_stats=True)\n","        (relu): ReLU(inplace)\n","        (conv2): Conv2d(128, 128, kernel_size=(3, 3), stride=(1, 1), padding=(1, 1), bias=False)\n","        (bn2): BatchNorm2d(128, eps=1e-05, momentum=0.1, affine=True, track_running_stats=True)\n","        (downsample): Sequential(\n","          (0): Conv2d(64, 128, kernel_size=(1, 1), stride=(2, 2), bias=False)\n","          (1): BatchNorm2d(128, eps=1e-05, momentum=0.1, affine=True, track_running_stats=True)\n","        )\n","      )\n","      (1): BasicBlock(\n","        (conv1): Conv2d(128, 128, kernel_size=(3, 3), stride=(1, 1), padding=(1, 1), bias=False)\n","        (bn1): BatchNorm2d(128, eps=1e-05, momentum=0.1, affine=True, track_running_stats=True)\n","        (relu): ReLU(inplace)\n","        (conv2): Conv2d(128, 128, kernel_size=(3, 3), stride=(1, 1), padding=(1, 1), bias=False)\n","        (bn2): BatchNorm2d(128, eps=1e-05, momentum=0.1, affine=True, track_running_stats=True)\n","      )\n","      (2): BasicBlock(\n","        (conv1): Conv2d(128, 128, kernel_size=(3, 3), stride=(1, 1), padding=(1, 1), bias=False)\n","        (bn1): BatchNorm2d(128, eps=1e-05, momentum=0.1, affine=True, track_running_stats=True)\n","        (relu): ReLU(inplace)\n","        (conv2): Conv2d(128, 128, kernel_size=(3, 3), stride=(1, 1), padding=(1, 1), bias=False)\n","        (bn2): BatchNorm2d(128, eps=1e-05, momentum=0.1, affine=True, track_running_stats=True)\n","      )\n","      (3): BasicBlock(\n","        (conv1): Conv2d(128, 128, kernel_size=(3, 3), stride=(1, 1), padding=(1, 1), bias=False)\n","        (bn1): BatchNorm2d(128, eps=1e-05, momentum=0.1, affine=True, track_running_stats=True)\n","        (relu): ReLU(inplace)\n","        (conv2): Conv2d(128, 128, kernel_size=(3, 3), stride=(1, 1), padding=(1, 1), bias=False)\n","        (bn2): BatchNorm2d(128, eps=1e-05, momentum=0.1, affine=True, track_running_stats=True)\n","      )\n","    )\n","    (6): Sequential(\n","      (0): BasicBlock(\n","        (conv1): Conv2d(128, 256, kernel_size=(3, 3), stride=(2, 2), padding=(1, 1), bias=False)\n","        (bn1): BatchNorm2d(256, eps=1e-05, momentum=0.1, affine=True, track_running_stats=True)\n","        (relu): ReLU(inplace)\n","        (conv2): Conv2d(256, 256, kernel_size=(3, 3), stride=(1, 1), padding=(1, 1), bias=False)\n","        (bn2): BatchNorm2d(256, eps=1e-05, momentum=0.1, affine=True, track_running_stats=True)\n","        (downsample): Sequential(\n","          (0): Conv2d(128, 256, kernel_size=(1, 1), stride=(2, 2), bias=False)\n","          (1): BatchNorm2d(256, eps=1e-05, momentum=0.1, affine=True, track_running_stats=True)\n","        )\n","      )\n","      (1): BasicBlock(\n","        (conv1): Conv2d(256, 256, kernel_size=(3, 3), stride=(1, 1), padding=(1, 1), bias=False)\n","        (bn1): BatchNorm2d(256, eps=1e-05, momentum=0.1, affine=True, track_running_stats=True)\n","        (relu): ReLU(inplace)\n","        (conv2): Conv2d(256, 256, kernel_size=(3, 3), stride=(1, 1), padding=(1, 1), bias=False)\n","        (bn2): BatchNorm2d(256, eps=1e-05, momentum=0.1, affine=True, track_running_stats=True)\n","      )\n","      (2): BasicBlock(\n","        (conv1): Conv2d(256, 256, kernel_size=(3, 3), stride=(1, 1), padding=(1, 1), bias=False)\n","        (bn1): BatchNorm2d(256, eps=1e-05, momentum=0.1, affine=True, track_running_stats=True)\n","        (relu): ReLU(inplace)\n","        (conv2): Conv2d(256, 256, kernel_size=(3, 3), stride=(1, 1), padding=(1, 1), bias=False)\n","        (bn2): BatchNorm2d(256, eps=1e-05, momentum=0.1, affine=True, track_running_stats=True)\n","      )\n","      (3): BasicBlock(\n","        (conv1): Conv2d(256, 256, kernel_size=(3, 3), stride=(1, 1), padding=(1, 1), bias=False)\n","        (bn1): BatchNorm2d(256, eps=1e-05, momentum=0.1, affine=True, track_running_stats=True)\n","        (relu): ReLU(inplace)\n","        (conv2): Conv2d(256, 256, kernel_size=(3, 3), stride=(1, 1), padding=(1, 1), bias=False)\n","        (bn2): BatchNorm2d(256, eps=1e-05, momentum=0.1, affine=True, track_running_stats=True)\n","      )\n","      (4): BasicBlock(\n","        (conv1): Conv2d(256, 256, kernel_size=(3, 3), stride=(1, 1), padding=(1, 1), bias=False)\n","        (bn1): BatchNorm2d(256, eps=1e-05, momentum=0.1, affine=True, track_running_stats=True)\n","        (relu): ReLU(inplace)\n","        (conv2): Conv2d(256, 256, kernel_size=(3, 3), stride=(1, 1), padding=(1, 1), bias=False)\n","        (bn2): BatchNorm2d(256, eps=1e-05, momentum=0.1, affine=True, track_running_stats=True)\n","      )\n","      (5): BasicBlock(\n","        (conv1): Conv2d(256, 256, kernel_size=(3, 3), stride=(1, 1), padding=(1, 1), bias=False)\n","        (bn1): BatchNorm2d(256, eps=1e-05, momentum=0.1, affine=True, track_running_stats=True)\n","        (relu): ReLU(inplace)\n","        (conv2): Conv2d(256, 256, kernel_size=(3, 3), stride=(1, 1), padding=(1, 1), bias=False)\n","        (bn2): BatchNorm2d(256, eps=1e-05, momentum=0.1, affine=True, track_running_stats=True)\n","      )\n","    )\n","    (7): Sequential(\n","      (0): BasicBlock(\n","        (conv1): Conv2d(256, 512, kernel_size=(3, 3), stride=(2, 2), padding=(1, 1), bias=False)\n","        (bn1): BatchNorm2d(512, eps=1e-05, momentum=0.1, affine=True, track_running_stats=True)\n","        (relu): ReLU(inplace)\n","        (conv2): Conv2d(512, 512, kernel_size=(3, 3), stride=(1, 1), padding=(1, 1), bias=False)\n","        (bn2): BatchNorm2d(512, eps=1e-05, momentum=0.1, affine=True, track_running_stats=True)\n","        (downsample): Sequential(\n","          (0): Conv2d(256, 512, kernel_size=(1, 1), stride=(2, 2), bias=False)\n","          (1): BatchNorm2d(512, eps=1e-05, momentum=0.1, affine=True, track_running_stats=True)\n","        )\n","      )\n","      (1): BasicBlock(\n","        (conv1): Conv2d(512, 512, kernel_size=(3, 3), stride=(1, 1), padding=(1, 1), bias=False)\n","        (bn1): BatchNorm2d(512, eps=1e-05, momentum=0.1, affine=True, track_running_stats=True)\n","        (relu): ReLU(inplace)\n","        (conv2): Conv2d(512, 512, kernel_size=(3, 3), stride=(1, 1), padding=(1, 1), bias=False)\n","        (bn2): BatchNorm2d(512, eps=1e-05, momentum=0.1, affine=True, track_running_stats=True)\n","      )\n","      (2): BasicBlock(\n","        (conv1): Conv2d(512, 512, kernel_size=(3, 3), stride=(1, 1), padding=(1, 1), bias=False)\n","        (bn1): BatchNorm2d(512, eps=1e-05, momentum=0.1, affine=True, track_running_stats=True)\n","        (relu): ReLU(inplace)\n","        (conv2): Conv2d(512, 512, kernel_size=(3, 3), stride=(1, 1), padding=(1, 1), bias=False)\n","        (bn2): BatchNorm2d(512, eps=1e-05, momentum=0.1, affine=True, track_running_stats=True)\n","      )\n","    )\n","  )\n","  (1): Sequential(\n","    (0): AdaptiveConcatPool2d(\n","      (ap): AdaptiveAvgPool2d(output_size=1)\n","      (mp): AdaptiveMaxPool2d(output_size=1)\n","    )\n","    (1): Flatten()\n","    (2): BatchNorm1d(1024, eps=1e-05, momentum=0.1, affine=True, track_running_stats=True)\n","    (3): Dropout(p=0.25)\n","    (4): Linear(in_features=1024, out_features=512, bias=True)\n","    (5): ReLU(inplace)\n","    (6): BatchNorm1d(512, eps=1e-05, momentum=0.1, affine=True, track_running_stats=True)\n","    (7): Dropout(p=0.5)\n","    (8): Linear(in_features=512, out_features=37, bias=True)\n","  )\n",")"]},"metadata":{"tags":[]},"execution_count":20}]},{"cell_type":"markdown","metadata":{"id":"9FGriLaosfp_","colab_type":"text"},"source":["使用fit_one_cycle()函数，先用大学习率进行训练，再选择小的学习率\n","4 这个参数是epoch\n","\n","*   iteration是迭代次数\n","* batch_size为一次迭代需要的样本量\n","*  epoch指的是所有数据都经过网络训练的次数\n","* （The number of epochs is a hyperparameter that defines
…
Image (3, 300, 300),Image (3, 300, 300),Image (3, 300, 300),Image (3, 300, 300)\n","y: CategoryList\n","german_shorthaired,yorkshire_terrier,Bombay,boxer,leonberger\n","Path: /root/.fastai/data/oxford-iiit-pet/images;\n","\n","Valid: LabelList (1478 items)\n","x: ImageList\n","Image (3, 300, 300),Image (3, 300, 300),Image (3, 300, 300),Image (3, 300, 300),Image (3, 300, 300)\n","y: CategoryList\n","havanese,Abyssinian,Russian_Blue,staffordshire_bull_terrier,basset_hound\n","Path: /root/.fastai/data/oxford-iiit-pet/images;\n","\n","Test: None, model=Sequential(\n","  (0): Sequential(\n","    (0): Conv2d(3, 64, kernel_size=(7, 7), stride=(2, 2), padding=(3, 3), bias=False)\n","    (1): BatchNorm2d(64, eps=1e-05, momentum=0.1, affine=True, track_running_stats=True)\n","    (2): ReLU(inplace)\n","    (3): MaxPool2d(kernel_size=3, stride=2, padding=1, dilation=1, ceil_mode=False)\n","    (4): Sequential(\n","      (0): Bottleneck(\n","        (conv1): Conv2d(64, 64, kernel_size=(1, 1), stride=(1, 1), bias=False)\n","        (bn1): BatchNorm2d(64, eps=1e-05, momentum=0.1, affine=True, track_running_stats=True)\n","        (conv2): Conv2d(64, 64, kernel_size=(3, 3), stride=(1, 1), padding=(1, 1), bias=False)\n","        (bn2): BatchNorm2d(64, eps=1e-05, momentum=0.1, affine=True, track_running_stats=True)\n","        (conv3): Conv2d(64, 256, kernel_size=(1, 1), stride=(1, 1), bias=False)\n","        (bn3): BatchNorm2d(256, eps=1e-05, momentum=0.1, affine=True, track_running_stats=True)\n","        (relu): ReLU(inplace)\n","        (downsample): Sequential(\n","          (0): Conv2d(64, 256, kernel_size=(1, 1), stride=(1, 1), bias=False)\n","          (1): BatchNorm2d(256, eps=1e-05, momentum=0.1, affine=True, track_running_stats=True)\n","        )\n","      )\n","      (1): Bottleneck(\n","        (conv1): Conv2d(256, 64, kernel_size=(1, 1), stride=(1, 1), bias=False)\n","        (bn1): BatchNorm2d(64, eps=1e-05, momentum=0.1, affine=True, track_running_stats=True)\n","        (conv2): Conv2d(64, 64, kernel_size=(3, 3), stride=(1, 1), padding=(1, 1), bias=False)\n","        (bn2): BatchNorm2d(64, eps=1e-05, momentum=0.1, affine=True, track_running_stats=True)\n","        (conv3): Conv2d(64, 256, kernel_size=(1, 1), stride=(1, 1), bias=False)\n","        (bn3): BatchNorm2d(256, eps=1e-05, momentum=0.1, affine=True, track_running_stats=True)\n","        (relu): ReLU(inplace)\n","      )\n","      (2): Bottleneck(\n","        (conv1): Conv2d(256, 64, kernel_size=(1, 1), stride=(1, 1), bias=False)\n","        (bn1): BatchNorm2d(64, eps=1e-05, momentum=0.1, affine=True, track_running_stats=True)\n","        (conv2): Conv2d(64, 64, kernel_size=(3, 3), stride=(1, 1), padding=(1, 1), bias=False)\n","        (bn2): BatchNorm2d(64, eps=1e-05, momentum=0.1, affine=True, track_running_stats=True)\n","        (conv3): Conv2d(64, 256, kernel_size=(1, 1), stride=(1, 1), bias=False)\n","        (bn3): BatchNorm2d(256, eps=1e-05, momentum=0.1, affine=True, track_running_stats=True)\n","        (relu): ReLU(inplace)\n","      )\n","    )\n","    (5): Sequential(\n","      (0): Bottleneck(\n","        (conv1): Conv2d(256, 128, kernel_size=(1, 1), stride=(1, 1), bias=False)\n","        (bn1): BatchNorm2d(128, eps=1e-05, momentum=0.1, affine=True, track_running_stats=True)\n","        (conv2): Conv2d(128, 128, kernel_size=(3, 3), stride=(2, 2), padding=(1, 1), bias=False)\n","        (bn2): BatchNorm2d(128, eps=1e-05, momentum=0.1, affine=True, track_running_stats=True)\n","        (conv3): Conv2d(128, 512, kernel_size=(1, 1), stride=(1, 1), bias=False)\n","        (bn3): BatchNorm2d(512, eps=1e-05, momentum=0.1, affine=True, track_running_stats=True)\n","        (relu): ReLU(inplace)\n","        (downsample): Sequential(\n","          (0): Conv2d(256, 512, kernel_size=(1, 1), stride=(2, 2), bias=False)\n","          (1): BatchNorm2d(512, eps=1e-05, momentum=0.1, affine=True, track_running_stats=True)\n","        )\n","      )\n","      (1): Bottleneck(\n","        (conv1): Conv2d(512, 128, kernel_size=(1, 1), stride=(1, 1), bias=False)\n","        (bn1): BatchNorm2d(128, eps=1e-05, momentum=0.1, affine=True, track_running_stats=True)\n","        (conv2): Conv2d(128, 128, kernel_size=(3, 3), stride=(1, 1), padding=(1, 1), bias=False)\n","        (bn2): BatchNorm2d(128, eps=1e-05, momentum=0.1, affine=True, track_running_stats=True)\n","        (conv3): Conv2d(128, 512, kernel_size=(1, 1), stride=(1, 1), bias=False)\n","        (bn3): BatchNorm2d(512, eps=1e-05, momentum=0.1, affine=True, track_running_stats=True)\n","        (relu): ReLU(inplace)\n","      )\n","      (2): Bottleneck(\n","        (conv1): Conv2d(512, 128, kernel_size=(1, 1), stride=(1, 1), bias=False)\n","        (bn1): BatchNorm2d(128, eps=1e-05, momentum=0.1, affine=True, track_running_stats=True)\n","        (conv2): Conv2d(128, 128, kernel_size=(3, 3), stride=(1, 1), padding=(1, 1), bias=False)\n","        (bn2): BatchNorm2d(128, eps=1e-05, momentum=0.1, affine=True, track_running_stats=True)\n","        (conv3): Conv2d(128, 512, kernel_size=(1, 1), stride=(1, 1), bias=False)\n","        (bn3): BatchNorm2d(512, eps=1e-05, momentum=0.1, affine=True, track_running_stats=True)\n","        (relu): ReLU(inplace)\n","      )\n","      (3): Bottleneck(\n","        (conv1): Conv2d(512, 128, kernel_size=(1, 1), stride=(1, 1), bias=False)\n","        (bn1): BatchNorm2d(128, eps=1e-05, momentum=0.1, affine=True, track_running_stats=True)\n","        (conv2): Conv2d(128, 128, kernel_size=(3, 3), stride=(1, 1), padding=(1, 1), bias=False)\n","        (bn2): BatchNorm2d(128, eps=1e-05, momentum=0.1, affine=True, track_running_stats=True)\n","        (conv3): Conv2d(128, 512, kernel_size=(1, 1), stride=(1, 1), bias=False)\n","        (bn3): BatchNorm2d(512, eps=1e-05, momentum=0.1, affine=True, track_running_stats=True)\n","        (relu): ReLU(inplace)\n","      )\n","    )\n","    (6): Sequential(\n","      (0): Bottleneck(\n","        (conv1): Conv2d(512, 256, kernel_size=(1, 1), stride=(1, 1), bias=False)\n","        (bn1): BatchNorm2d(256, eps=1e-05, momentum=0.1, affine=True, track_running_stats=True)\n","        (conv2): Conv2d(256, 256, kernel_size=(3, 3), stride=(2, 2), padding=(1, 1), bias=False)\n","        (bn2): BatchNorm2d(256, eps=1e-05, momentum=0.1, affine=True, track_running_stats=True)\n","        (conv3): Conv2d(256, 1024, kernel_size=(1, 1), stride=(1, 1), bias=False)\n","        (bn3): BatchNorm2d(1024, eps=1e-05, momentum=0.1, affine=True, track_running_stats=True)\n","        (relu): ReLU(inplace)\n","        (downsample): Sequential(\n","          (0): Conv2d(512, 1024, kernel_size=(1, 1), stride=(2, 2), bias=False)\n","          (1): BatchNorm2d(1024, eps=1e-05, momentum=0.1, affine=True, track_running_stats=True)\n","        )\n","      )\n","      (1): Bottleneck(\n","        (conv1): Conv2d(1024, 256, kernel_size=(1, 1), stride=(1, 1), bias=False)\n","        (bn1): BatchNorm2d(256, eps=1e-05, momentum=0.1, affine=True, track_running_stats=True)\n","        (conv2): Conv2d(256, 256, kernel_size=(3, 3), stride=(1, 1), padding=(1, 1), bias=False)\n","        (bn2): BatchNorm2d(256, eps=1e-05, momentum=0.1, affine=True, track_running_stats=True)\n","        (conv3): Conv2d(256, 1024, kernel_size=(1, 1), stride=(1, 1), bias=False)\n","        (bn3): BatchNorm2d(1024, eps=1e-05, momentum=0.1, affine=True, track_running_stats=True)\n","        (relu): ReLU(inplace)\n","      )\n","      (2): Bottleneck(\n","        (conv1): Conv2d(1024, 256, kernel_size=(1, 1), stride=(1, 1), bias=False)\n","        (bn1): BatchNorm2d(256, eps=1e-05, momentum=0.1, affine=True, track_running_stats=True)\n","        (conv2): Conv2d(256, 256, kernel_size=(3, 3), stride=(1, 1), padding=(1, 1), bias=False)\n","        (bn2): BatchNorm2d(256, eps=1e-05, momentum=0.1, affine=True, track_running_stats=True)\n","        (conv3): Conv2d(256, 1024, kernel_size=(1, 1), stride=(1, 1), bias=False)\n","        (bn3): BatchNorm2d(1024, eps=1e-05, momentum=0.1, affine=True, track_running_stats=True)\n","        (relu): ReLU(inplace)\n","      )\n","      (3): Bottleneck(\n","        (conv1): Conv2d(1024, 256, kernel_size=(1, 1), stride=(1, 1), bias=False)\n","        (bn1): BatchNorm2d(256, eps=1e-05, momentum=0.1, affine=True, track_running_stats=True)\n","        (conv2): Conv2d(256, 256, kernel_size=(3, 3), stride=(1, 1), padding=(1, 1), bias=False)\n","        (bn2): BatchNorm2d(256, eps=1e-05, momentum=0.1, affine=True, track_running_stats=True)\n","        (conv3): Conv2d(256, 1024, kernel_size=(1, 1), stride=(1, 1), bias=False)\n","        (bn3): BatchNorm2d(1024, eps=1e-05, momentum=0.1, affine=True, track_running_stats=True)\n","        (relu): ReLU(inplace)\n","      )\n","      (4): Bottleneck(\n","        (conv1): Conv2d(1024, 256, kernel_size=(1, 1), stride=(1, 1), bias=False)\n","        (bn1): BatchNorm2d(256, eps=1e-05, momentum=0.1, affine=True, track_running_stats=True)\n","        (conv2): Conv2d(256, 256, kernel_size=(3, 3), stride=(1, 1), padding=(1, 1), bias=False)\n","        (bn2): BatchNorm2d(256, eps=1e-05, momentum=0.1, affine=True, track_running_stats=True)\n","        (conv3): Conv2d(256, 1024, kernel_size=(1, 1), stride=(1, 1), bias=False)\n","        (bn3): BatchNorm2d(1024, eps=1e-05, momentum=0.1, affine=True, track_running_stats=True)\n","        (relu): ReLU(inplace)\n","      )\n","      (5): Bottleneck(\n","        (conv1): Conv2d(1024, 256, kernel_size=(1, 1), stride=(1, 1), bias=False)\n","        (bn1): BatchNorm2d(256, eps=1e-05, momentum=0.1, affine=True, track_running_stats=True)\n","        (conv2): Conv2d(256, 256, kernel_size=(3, 3), stride=(1, 1), padding=(1, 1), bias=False)\n","        (bn2): BatchNorm2d(256, eps=1e-05, momentum=0.1, affine=True, track_running_stats=True)\n","        (conv3): Conv2d(256, 1024, kernel_size=(1, 1), stride=(1, 1), bias=False)\n","        (bn3): BatchNorm2d(1024, eps=1e-05, momentum=0.1, affine=True, track_running_stats=True)\n","        (relu): ReLU(inplace)\n","      )\n","    )\n","    (7): Sequential(\n","      (0): Bottleneck(\n","        (conv1): Conv2d(1024, 512, kernel_size=(1, 1), stride=(1, 1), bias=False)\n","        (bn1): BatchNorm2d(512, eps=1e-05, momentum=0.1, affine=True, track_running_stats=True)\n","        (conv2): Conv2d(512, 512, kernel_size=(3, 3), stride=(2, 2), padding=(1, 1), bias=False)\n","        (bn2): BatchNorm2d(512, eps=1e-05, momentum=0.1, affine=True, track_running_stats=True)\n","        (conv3): Conv2d(512, 2048, kernel_size=(1, 1), stride=(1, 1), bias=False)\n","        (bn3): BatchNorm2d(2048, eps=1e-05, momentum=0.1, affine=True, track_running_stats=True)\n","        (relu): ReLU(inplace)\n","        (downsample): Sequential(\n","          (0): Conv2d(1024, 2048, kernel_size=(1, 1), stride=(2, 2), bias=False)\n","          (1): BatchNorm2d(2048, eps=1e-05, momentum=0.1, affine=True, track_running_stats=True)\n","        )\n","      )\n","      (1): Bottleneck(\n","        (conv1): Conv2d(2048, 512, kernel_size=(1, 1), stride=(1, 1), bias=False)\n","        (bn1): BatchNorm2d(512, eps=1e-05, momentum=0.1, affine=True, track_running_stats=True)\n","        (conv2): Conv2d(512, 512, kernel_size=(3, 3), stride=(1, 1), padding=(1, 1), bias=False)\n","        (bn2): BatchNorm2d(512, eps=1e-05, momentum=0.1, affine=True, track_running_stats=True)\n","        (conv3): Conv2d(512, 2048, kernel_size=(1, 1), stride=(1, 1), bias=False)\n","        (bn3): BatchNorm2d(2048, eps=1e-05, momentum=0.1, affine=True, track_running_stats=True)\n","        (relu): ReLU(inplace)\n","      )\n","      (2): Bottleneck(\n","        (conv1): Conv2d(2048, 512, kernel_size=(1, 1), stride=(1, 1), bias=False)\n","        (bn1): BatchNorm2d(512, eps=1e-05, momentum=0.1, affine=True, track_running_stats=True)\n","        (conv2): Conv2d(512, 512, kernel_size=(3, 3), stride=(1, 1), padding=(1, 1), bias=False)\n","        (bn2): BatchNorm2d(512, eps=1e-05, momentum=0.1, affine=True, track_running_stats=True)\n","        (conv3): Conv2d(512, 2048, kernel_size=(1, 1), stride=(1, 1), bias=False)\n","        (bn3): BatchNorm2d(2048, eps=1e-05, momentum=0.1, affine=True, track_running_stats=True)\n","        (relu): ReLU(inplace)\n","      )\n","    )\n","  )\n","  (1): Sequential(\n","    (0): AdaptiveConcatPool2d(\n","      (ap): AdaptiveAvgPool2d(output_size=1)\n","      (mp): AdaptiveMaxPool2d(output_size=1)\n","    )\n","    (1): Flatten()\n","    (2): BatchNorm1d(4096, eps=1e-05, momentum=0.1, affine=True, track_running_stats=True)\n","    (3): Dropout(p=0.25)\n","    (4): Linear(in_features=4096, out_features=512, bias=True)\n","    (5): ReLU(inplace)\n","    (6): BatchNorm1d(512, eps=1e-05, momentum=0.1, affine=True, track_running_stats=True)\n","    (7): Dropout(p=0.5)\n","    (8): Linear(in_features=512, out_features=37, bias=True)\n","  )\n","), opt_func=functools.partial(<class 'torch.optim.adam.Adam'>, betas=(0.9, 0.99)), loss_func=FlattenedLoss of CrossEntropyLoss(), metrics=[<function accuracy at 0x7fecd6b67730>], true_wd=True, bn_wd=True, wd=0.01, train_bn=True, path=PosixPath('/root/.fastai/data/oxford-iiit-pet/images'), model_dir='models', callback_fns=[functools.partial(<class 'fastai.basic_train.Recorder'>, add_time=True, silent=False)], callbacks=[], layer_groups=[Sequential(\n","  (0): Conv2d(3, 64, kernel_size=(7, 7), stride=(2, 2), padding=(3, 3), bias=False)\n","  (1): BatchNorm2d(64, eps=1e-05, momentum=0.1, affine=True, track_running_stats=True)\n","  (2): ReLU(inplace)\n","  (3): MaxPool2d(kernel_size=3, stride=2, padding=1, dilation=1, ceil_mode=False)\n","  (4): Conv2d(64, 64, kernel_size=(1, 1), stride=(1, 1), bias=False)\n","  (5): BatchNorm2d(64, eps=1e-05, momentum=0.1, affine=True, track_running_stats=True)\n","  (6): Conv2d(64, 64, kernel_size=(3, 3), stride=(1, 1), padding=(1, 1), bias=False)\n","  (7): BatchNorm2d(64, eps=1e-05, momentum=0.1, affine=True, track_running_stats=True)\n","  (8): Conv2d(64, 256, kernel_size=(1, 1), stride=(1, 1), bias=False)\n","  (9): BatchNorm2d(256, eps=1e-05, momentum=0.1, affine=True, track_running_stats=True)\n","  (10): ReLU(inplace)\n","  (11): Conv2d(64, 256, kernel_size=(1, 1), stride=(1, 1), bias=False)\n","  (12): BatchNorm2d(256, eps=1e-05, momentum=0.1, affine=True, track_running_stats=True)\n","  (13): Conv2d(256, 64, kernel_size=(1, 1), stride=(1, 1), bias=False)\n","  (14): BatchNorm2d(64, eps=1e-05, momentum=0.1, affine=True, track_running_stats=True)\n","  (15): Conv2d(64, 64, kernel_size=(3, 3), stride=(1, 1), padding=(1, 1), bias=False)\n","  (16): BatchNorm2d(64, eps=1e-05, momentum=0.1, affine=True, track_running_stats=True)\n","  (17): Conv2d(64, 256, kernel_size=(1, 1), stride=(1, 1), bias=False)\n","  (18): BatchNorm2d(256, eps=1e-05, momentum=0.1, affine=True, track_running_stats=True)\n","  (19): ReLU(inplace)\n","  (20): Conv2d(256, 64, kernel_size=(1, 1), stride=(1, 1), bias=False)\n","  (21): BatchNorm2d(64, eps=1e-05, momentum=0.1, affine=True, track_running_stats=True)\n","  (22): Conv2d(64, 64, kernel_size=(3, 3), stride=(1, 1), padding=(1, 1), bias=False)\n","  (23): BatchNorm2d(64, eps=1e-05, momentum=0.1, affine=True, track_running_stats=True)\n","  (24): Conv2d(64, 256, kernel_size=(1, 1), stride=(1, 1), bias=False)\n","  (25): BatchNorm2d(256, eps=1e-05, momentum=0.1, affine=True, track_running_stats=True)\n","  (26): ReLU(inplace)\n","  (27): Conv2d(256, 128, kernel_size=(1, 1), stride=(1, 1), bias=False)\n","  (28): BatchNorm2d(128, eps=1e-05, momentum=0.1, affine=True, track_running_stats=True)\n","  (29): Conv2d(128, 128, kernel_size=(3, 3), stride=(2, 2), padding=(1, 1), bias=False)\n","  (30): BatchNorm2d(128, eps=1e-05, momentum=0.1, affine=True, track_running_stats=True)\n","  (31): Conv2d(128, 512, kernel_size=(1, 1), stride=(1, 1), bias=False)\n","  (32): BatchNorm2d(512, eps=1e-05, momentum=0.1, affine=True, track_running_stats=True)\n","  (33): ReLU(inplace)\n","  (34): Conv2d(256, 512, kernel_size=(1, 1), stride=(2, 2), bias=False)\n","  (35): BatchNorm2d(512, eps=1e-05, momentum=0.1, affine=True, track_running_stats=True)\n","  (36): Conv2d(512, 128, kernel_size=(1, 1), stride=(1, 1), bias=False)\n","  (37): BatchNorm2d(128, eps=1e-05, momentum=0.1, affine=True, track_running_stats=True)\n","  (38): Conv2d(128, 128, kernel_size=(3, 3), stride=(1, 1), padding=(1, 1), bias=False)\n","  (39): BatchNorm2d(128, eps=1e-05, momentum=0.1, affine=True, track_running_stats=True)\n","  (40): Conv2d(128, 512, kernel_size=(1, 1), stride=(1, 1), bias=False)\n","  (41): BatchNorm2d(512, eps=1e-05, momentum=0.1, affine=True, track_running_stats=True)\n","  (42): ReLU(inplace)\n","  (43): Conv2d(512, 128, kernel_size=(1, 1), stride=(1, 1), bias=False)\n","  (44): BatchNorm2d(128, eps=1e-05, momentum=0.1, affine=True, track_running_stats=True)\n","  (45): Conv2d(128, 128, kernel_size=(3, 3), stride=(1, 1), padding=(1, 1), bias=False)\n","  (46): BatchNorm2d(128, eps=1e-05, momentum=0.1, affine=True, track_running_stats=True)\n","  (47): Conv2d(128, 512, kernel_size=(1, 1), stride=(1, 1), bias=False)\n","  (48): BatchNorm2d(512, eps=1e-05, momentum=0.1, affine=True, track_running_stats=True)\n","  (49): ReLU(inplace)\n","  (50): Conv2d(512, 128, kernel_size=(1, 1), stride=(1, 1), bias=False)\n","  (51): BatchNorm2d(128, eps=1e-05, momentum=0.1, affine=True, track_running_stats=True)\n","  (52): Conv2d(128, 128, kernel_size=(3, 3), stride=(1, 1), padding=(1, 1), bias=False)\n","  (53): BatchNorm2d(128, eps=1e-05, momentum=0.1, affine=True, track_running_stats=True)\n","  (54): Conv2d(128, 512, kernel_size=(1, 1), stride=(1, 1), bias=False)\n","  (55): BatchNorm2d(512, eps=1e-05, momentum=0.1, affine=True, track_running_stats=True)\n","  (56): ReLU(inplace)\n","), Sequential(\n","  (0): Conv2d(512, 256, kernel_size=(1, 1), stride=(1, 1), bias=False)\n","  (1): BatchNorm2d(256, eps=1e-05, momentum=0.1, affine=True, track_running_stats=True)\n","  (2): Conv2d(256, 256, kernel_size=(3, 3), stride=(2, 2), padding=(1, 1), bias=False)\n","  (3): BatchNorm2d(256, eps=1e-05, momentum=0.1, affine=True, track_running_stats=True)\n","  (4): Conv2d(256, 1024, kernel_size=(1, 1), stride=(1, 1), bias=False)\n","  (5): BatchNorm2d(1024, eps=1e-05, momentum=0.1, affine=True, track_running_stats=True)\n","  (6): ReLU(inplace)\n","  (7): Conv2d(512, 1024, kernel_size=(1, 1), stride=(2, 2), bias=False)\n","  (8): BatchNorm2d(1024, eps=1e-05, momentum=0.1, affine=True, track_running_stats=True)\n","  (9): Conv2d(1024, 256, kernel_size=(1, 1), stride=(1, 1), bias=False)\n","  (10): BatchNorm2d(256, eps=1e-05, momentum=0.1, affine=True, track_running_stats=True)\n","  (11): Conv2d(256, 256, kernel_size=(3, 3), stride=(1, 1), padding=(1, 1), bias=False)\n","  (12): BatchNorm2d(256, eps=1e-05, momentum=0.1, affine=True, track_running_stats=True)\n","  (13): Conv2d(256, 1024, kernel_size=(1, 1), stride=(1, 1), bias=False)\n","  (14): BatchNorm2d(1024, eps=1e-05, momentum=0.1, affine=True, track_running_stats=True)\n","  (15): ReLU(inplace)\n","  (16): Conv2d(1024, 256, kernel_size=(1, 1), stride=(1, 1), bias=False)\n","  (17): BatchNorm2d(256, eps=1e-05, momentum=0.1, affine=True, track_running_stats=True)\n","  (18): Conv2d(256, 256, kernel_size=(3, 3), stride=(1, 1), padding=(1, 1), bias=False)\n","  (19): BatchNorm2d(256, eps=1e-05, momentum=0.1, affine=True, track_running_stats=True)\n","  (20): Conv2d(256, 1024, kernel_size=(1, 1), stride=(1, 1), bias=False)\n","  (21): BatchNorm2d(1024, eps=1e-05, momentum=0.1, affine=True, track_running_stats=True)\n","  (22): ReLU(inplace)\n","  (23): Conv2d(1024, 256, kernel_size=(1, 1), stride=(1, 1), bias=False)\n","  (24): BatchNorm2d(256, eps=1e-05, momentum=0.1, affine=True, track_running_stats=True)\n","  (25): Conv2d(256, 256, kernel_size=(3, 3), stride=(1, 1), padding=(1, 1), bias=False)\n","  (26): BatchNorm2d(256, eps=1e-05, momentum=0.1, affine=True, track_running_stats=True)\n","  (27): Conv2d(256, 1024, kernel_size=(1, 1), stride=(1, 1), bias=False)\n","  (28): BatchNorm2d(1024, eps=1e-05, momentum=0.1, affine=True, track_running_stats=True)\n","  (29): ReLU(inplace)\n","  (30): Conv2d(1024, 256, kernel_size=(1, 1), stride=(1, 1), bias=False)\n","  (31): BatchNorm2d(256, eps=1e-05, momentum=0.1, affine=True, track_running_stats=True)\n","  (32): Conv2d(256, 256, kernel_size=(3, 3), stride=(1, 1), padding=(1, 1), bias=False)\n","  (33): BatchNorm2d(256, eps=1e-05, momentum=0.1, affine=True, track_running_stats=True)\n","  (34): Conv2d(256, 1024, kernel_size=(1, 1), stride=(1, 1), bias=False)\n","  (35): BatchNorm2d(1024, eps=1e-05, momentum=0.1, affine=True, track_running_stats=True)\n","  (36): ReLU(inplace)\n","  (37): Conv2d(1024, 256, kernel_size=(1, 1), stride=(1, 1), bias=False)\n","  (38): BatchNorm2d(256, eps=1e-05, momentum=0.1, affine=True, track_running_stats=True)\n","  (39): Conv2d(256, 256, kernel_size=(3, 3), stride=(1, 1), padding=(1, 1), bias=False)\n","  (40): BatchNorm2d(256, eps=1e-05, momentum=0.1, affine=True, track_running_stats=True)\n","  (41): Conv2d(256, 1024, kernel_size=(1, 1), stride=(1, 1), bias=False)\n","  (42): BatchNorm2d(1024, eps=1e-05, momentum=0.1, affine=True, track_running_stats=True)\n","  (43): ReLU(inplace)\n","  (44): Conv2d(1024, 512, kernel_size=(1, 1), stride=(1, 1), bias=False)\n","  (45): BatchNorm2d(512, eps=1e-05, momentum=0.1, affine=True, track_running_stats=True)\n","  (46): Conv2d(512, 512, kernel_size=(3, 3), stride=(2, 2), padding=(1, 1), bias=False)\n","  (47): BatchNorm2d(512, eps=1e-05, momentum=0.1, affine=True, track_running_stats=True)\n","  (48): Conv2d(512, 2048, kernel_size=(1, 1), stride=(1, 1), bias=False)\n","  (49): BatchNorm2d(2048, eps=1e-05, momentum=0.1, affine=True, track_running_stats=True)\n","  (50): ReLU(inplace)\n","  (51): Conv2d(1024, 2048, kernel_size=(1, 1), stride=(2, 2), bias=False)\n","  (52): BatchNorm2d(2048, eps=1e-05, momentum=0.1, affine=True, track_running_stats=True)\n","  (53): Conv2d(2048, 512, kernel_size=(1, 1), stride=(1, 1), bias=False)\n","  (54): BatchNorm2d(512, eps=1e-05, momentum=0.1, affine=True, track_running_stats=True)\n","  (55): Conv2d(512, 512, kernel_size=(3, 3), stride=(1, 1), padding=(1, 1), bias=False)\n","  (56): BatchNorm2d(512, eps=1e-05, momentum=0.1, affine=True, track_running_stats=True)\n","  (57): Conv2d(512, 2048, kernel_size=(1, 1), stride=(1, 1), bias=False)\n","  (58): BatchNorm2d(2048, eps=1e-05, momentum=0.1, affine=True, track_running_stats=True)\n","  (59): ReLU(inplace)\n","  (60): Conv2d(2048, 512, kernel_size=(1, 1), stride=(1, 1), bias=False)\n","  (61): BatchNorm2d(512, eps=1e-05, momentum=0.1, affine=True, track_running_stats=True)\n","  (62): Conv2d(512, 512, kernel_size=(3, 3), stride=(1, 1), padding=(1, 1), bias=False)\n","  (63): BatchNorm2d(512, eps=1e-05, momentum=0.1, affine=True, track_running_stats=True)\n","  (64): Conv2d(512, 2048, kernel_size=(1, 1), stride=(1, 1), bias=False)\n","  (65): BatchNorm2d(2048, eps=1e-05, momentum=0.1, affine=True, track_running_stats=True)\n","  (66): ReLU(inplace)\n","), Sequential(\n","  (0): AdaptiveAvgPool2d(output_size=1)\n","  (1): AdaptiveMaxPool2d(output_size=1)\n","  (2): Flatten()\n","  (3): BatchNorm1d(4096, eps=1e-05, momentum=0.1, affine=True, track_running_stats=True)\n","  (4): Dropout(p=0.25)\n","  (5): Linear(in_features=4096, out_features=512, bias=True)\n","  (6): ReLU(inplace)\n","  (7): BatchNorm1d(512, eps=1e-05, momentum=0.1, affine=True, track_running_stats=True)\n","  (8): Dropout(p=0.5)\n","  (9): Linear(in_features=512, out_features=37, bias=True)\n",")], add_time=True, silent=None)"]},"metadata":{"tags":[]},"execution_count":49}]},{"cell_type":"code","metadata":{"id":"UbigDsrW-3tG","colab_type":"code","colab":{}},"source":["interp = ClassificationInterpretation.from_learner(learn)"],"execution_count":0,"outputs":[]},{"cell_type":"code","metadata":{"id":"O7cAEyfC_TeC","colab_type":"code","colab":
…
